outs/Laplace1D/Laplace1D_cos/HMC_2022.09.09-17.21.39/thetas/theta_4249/w_02.npy (npy, 1152 bytes, 1 tensors)

array f4 [16, 16]
0	0xbfd46fa4	-1.659657
1	0x40c75cf7	6.2300982
2	0xc160f022	-14.058626
3	0x3fd7d75f	1.6862601
4	0x4099e111	4.808724
5	0x416a292c	14.635052
6	0xc11ca18b	-9.789439
7	0x40ae8f14	5.4549656
8	0xc0b5bb07	-5.6790805
9	0xc13cefa5	-11.808507
10	0xbfa009d4	-1.2502999
11	0xbfa596be	-1.2936628
12	0xc10d730c	-8.840588
13	0xc05f87fe	-3.4926753
14	0xc12f3fbd	-10.953061
15	0x419ee4e1	19.861757
16	0x411ae754	9.681477
17	0x40912c62	4.536668
18	0xc1110845	-9.064519
19	0xc0b615e6	-5.690173
20	0x3eb66efa	0.35631543
21	0x411e6412	9.899431
22	0xc103d876	-8.240347
23	0x411917ff	9.568358
24	0x3f6cb170	0.9245825
25	0xbf3f3f2b	-0.7470576
26	0xbeeefc7a	-0.46677
27	0xc037183f	-2.8608549
28	0xc108cfc2	-8.550722
29	0x400065f0	2.0062218
30	0x4103fc97	8.249167
31	0xc0bd39b5	-5.9132943
32	0x41308ed3	11.034869
33	0xbcc24d08	-0.023718372
34	0x405f1cd1	3.4861338
35	0x4081a244	4.051058
36	0x40a7881f	5.2353663
37	0x409bc4bd	4.867766
38	0x3fa4ef3d	1.288551
39	0xc160629b	-14.024074
40	0xc0ea6a1a	-7.325452
41	0x3fc6fd91	1.5546132
42	0x40593cbf	3.3943326
43	0x402e2678	2.721098
44	0xc0f066ea	-7.5125628
45	0x40398119	2.8985045
46	0xbf7c2726	-0.98497236
47	0xc12cebab	-10.807536
48	0x409ab056	4.8340254
49	0x41283671	10.513291
50	0xc008c04b	-2.1367366
51	0xc1467284	-12.402958
52	0x40891fec	4.2851467
53	0xbfdbc5fe	-1.7169797
54	0xbda4bf1a	-0.08044262
55	0x410a34af	8.637862
56	0xbf405cee	-0.751418
57	0x405ee869	3.4829352
58	0xc0e435a3	-7.1315475
59	0xc00cbe5c	-2.1991186
60	0x40bceb87	5.903751
61	0x405aadd9	3.4168608
62	0x3fd1ca32	1.638983
63	0x40b04f90	5.509712
64	0xc0d24862	-6.571336
65	0x40a0d033	5.025415
66	0x3ed4027a	0.4140814
67	0xc0be241e	-5.941909
68	0x3f683f3f	0.90721506
69	0xc0b88bfc	-5.767088
70	0x3fce2859	1.6106063
71	0x400fa9f9	2.2447493
72	0xc009f510	-2.1555824
73	0xc05ae370	-3.4201317
74	0x402f8fbb	2.7431476
75	0xc025a4cf	-2.588184
76	0x402621e7	2.5958192
77	0x3fcf8e28	1.6215258
78	0xc0720003	-3.7812507
79	0x4154ff76	13.312368
80	0xc038d9ce	-2.8882937
81	0x40bb03ba	5.844205
82	0xc0510e3e	-3.2664943
83	0x40a7f14b	5.2482047
84	0xc0cdc85e	-6.430709
85	0xc0bb210b	-5.8477836
86	0xc0a10c15	-5.032725
87	0x40b65245	5.6975427
88	0xc0850f28	-4.1581
89	0x4115032e	9.313276
90	0xc0c6dda7	-6.214557
91	0xc0104a7d	-2.2545464
92	0x40426330	3.037304
93	0x3ff75d14	1.932528
94	0xc0912119	-4.5352902
95	0xc0966247	-4.6994967
96	0xc0512e68	-3.2684574
97	0x3f4c2c3a	0.79754984
98	0x3ebf5ebb	0.3737696
99	0x40e6428d	7.195624
100	0x40497fb0	3.1484184
101	0x411179f5	9.092275
102	0xc026e834	-2.6079226
103	0xc03e5986	-2.974214
104	0xc036b1a2	-2.8545918
105	0xc0ac32c4	-5.381197
106	0xc01ef4b7	-2.4836862
107	0xbfe763a9	-1.8077289
108	0x4090f815	4.5302835
109	0x3f9d0e3d	1.226997
110	0x40bc69ef	5.8879313
111	0xbf6ead04	-0.9323275
112	0x3f95c899	1.1701843
113	0xc0057ce7	-2.0857484
114	0x4040094e	3.000568
115	0x4084b2bc	4.146818
116	0x3e8f3692	0.2797132
117	0x41015eac	8.085613
118	0x4011e9f2	2.279904
119	0x40cc4d7b	6.384458
120	0x40845ad9	4.13609
121	0x4145e6ab	12.368815
122	0xc0aa8f86	-5.33002
123	0xc09260c5	-4.5743127
124	0x3fe2e9cb	1.7727598
125	0xbe16e245	-0.14734752
126	0xc02a0120	-2.6563187
127	0xc06fb5cd	-3.7454712
128	0x40c62617	6.1921496
129	0x3e8a5669	0.2701905
130	0x41338764	11.220554
131	0xc16e20e1	-14.883027
132	0xc00fa7a6	-2.2446074
133	0x408736c2	4.2254343
134	0xbedf9c6f	-0.43674037
135	0x412e3040	10.88678
136	0xbfb7cccd	-1.4359375
137	0x409edb12	4.964242
138	0x410ad20d	8.676282
139	0x40171306	2.360536
140	0xc068d729	-3.6381323
141	0xbe7da2b8	-0.24769104
142	0xc045ace3	-3.0886772
143	0x3fd0c7c8	1.6310968
144	0xc12535df	-10.325652
145	0xc0a3df1e	-5.120986
146	0x4116874b	9.4080305
147	0x401091f9	2.2589095
148	0x3f33e633	0.7027313
149	0xc10a127b	-8.629512
150	0x418f131f	17.884336
151	0xc156d963	-13.428073
152	0x3f3dedf9	0.7419124
153	0xc0a31609	-5.09644
154	0xc043383c	-3.0503073
155	0x3fb81515	1.4381434
156	0x41295b2c	10.584759
157	0xc09fed0e	-4.9976873
158	0x40b06e1b	5.5134406
159	0x4109fdc6	8.624456
160	0xbf7003e2	-0.93755925
161	0x3f14ee16	0.5817579
162	0x3ed5eadf	0.41780755
163	0xc1291c50	-10.569412
164	0x3faf0cfc	1.3675838
165	0x40b61f14	5.6912937
166	0x3e30cc55	0.17265446
167	0x3f0e8193	0.55666465
168	0x40837a49	4.1086774
169	0xc02d648f	-2.7092626
170	0xbfa1be91	-1.2636281
171	0x411fa267	9.977149
172	0xc08eb05c	-4.4590282
173	0x3fbe7c07	1.48816
174	0xc0443f63	-3.0663688
175	0x40cdca13	6.4309173
176	0x411c9e52	9.788652
177	0x40eb5d5a	7.3551455
178	0x411fc711	9.9861
179	0xc12d8a59	-10.846276
180	0xc0ce6b28	-6.4505806
181	0x3fb9565f	1.4479483
182	0xbfa7c7ff	-1.3107909
183	0x3fe69cc2	1.8016589
184	0x4060ee25	3.5145352
185	0x411bec95	9.745259
186	0xc09784f5	-4.73498
187	0xc0a8eae6	-5.278674
188	0xbfa50180	-1.2891083
189	0xc0de6851	-6.950234
190	0x3e430e6f	0.19048475
191	0xbffef48e	-1.9918382
192	0x409496eb	4.6434226
193	0xc05d390b	-3.4566066
194	0xbfec7766	-1.8473938
195	0xc0028a15	-2.0396779
196	0xc0654b78	-3.5827312
197	0xc0f40d0d	-7.626593
198	0xc0e06648	-7.0124855
199	0xc09a4ce7	-4.8218875
200	0x4100e488	8.055794
201	0xbf7779e9	-0.96670395
202	0xbca478d6	-0.02007715
203	0x41735e60	15.210541
204	0x414570af	12.340011
205	0x4112d7db	9.177699
206	0xbf61374d	-0.8797501
207	0x3f0f6c0a	0.5602423
208	0xc1231916	-10.1936245
209	0xbf9f2c6f	-1.2435435
210	0xc10c12b3	-8.754565
211	0xc03395ca	-2.8060174
212	0x4076ff20	3.8593216
213	0x4075d3c5	3.8410504
214	0xbf8b7a42	-1.0896685
215	0xbf33d38e	-0.7024468
216	0x4102336b	8.137553
217	0x4080ae85	4.0213037
218	0x3fec26f5	1.8449389
219	0x3fbc1141	1.4692765
220	0x412e4c3b	10.893611
221	0x404fef2b	3.2489727
222	0xc04e7163	-3.2256706
223	0xc10b5b1a	-8.709742
224	0x3f051fc0	0.5200157
225	0x400a3844	2.1596842
226	0xc08ad453	-4.3384185
227	0xc02f5d4c	-2.7400694
228	0x3fbfa7e8	1.4973116
229	0xc0aa02e7	-5.3128543
230	0x4085b4e8	4.1783333
231	0xbfed05fe	-1.8517454
232	0x4082e303	4.0902114
233	0x3ff573c6	1.9175956
234	0x3fd378a6	1.6521194
235	0x400d2d54	2.2058916
236	0xc05941b6	-3.3946357
237	0x3cb138fd	0.02163362
238	0x3fcd330a	1.6031201
239	0x4070c78a	3.762179
240	0xc1561836	-13.380911
241	0xbf9ab905	-1.2087713
242	0xc0a0205b	-5.0039496
243	0xc09ef813	-4.9677825
244	0xc040908b	-3.0088222
245	0xc07ed2ca	-3.9816155
246	0x408d8418	4.4223747
247	0x40afed96	5.497752
248	0x413d7d36	11.843069
249	0x4087a155	4.238444
250	0xc0e1d6a4	-7.0574512
251	0xc16df4d4	-14.8722725
252	0x40227f58	2.5390224
253	0xc0b915b0	-5.7838974
254	0x40ae4f06	5.4471464
255	0x4091b487	4.553287
