outs/Laplace1D/Laplace1D_cos/HMC_2022.09.09-17.21.39/thetas/theta_398/w_02.npy (npy, 1152 bytes, 1 tensors)

array f4 [16, 16]
0.14698018 5.426284 -12.472894 1.2899171 3.3718693 14.591672 -9.652684 3.8606777
-6.0108185 -11.366799 -1.0631405 0.8864418 -7.831326 -5.2097073 -7.492801 19.058306
8.401941 5.116261 -4.71819 -3.65926 -0.80582535 8.3502 -6.8110766 9.438652
0.3275732 -3.674325 -0.36055434 -2.142371 -8.375112 2.6905532 6.732857 -4.2763524
8.846487 1.7200509 4.6233215 5.2160897 2.664222 4.4485645 2.3123238 -11.651739
-7.056528 1.179393 2.289337 3.2947812 -6.300763 3.9163604 2.870523 -10.256954
4.198198 11.54227 -3.9477797 -9.982735 4.195539 -0.18238518 -1.680369 9.190991
-0.087665275 3.5670145 -7.0021358 -1.4881839 6.4122877 3.0952542 4.495015 5.4975805
-5.806561 3.996102 -0.0017895247 -5.4920483 1.073611 -6.5679216 0.59750134 0.34588793
0.090052366 -1.3059533 2.7557163 -3.2803357 2.3704104 0.3723745 -1.5730716 11.722982
-0.091666386 3.2541997 -3.4327505 3.6362479 -4.51082 -3.1867955 -4.849073 7.3678613
-4.8724823 4.739201 -6.7712946 0.8701048 0.9285861 2.9226186 -5.1147523 -2.8993998
-5.7721543 -0.21622737 -0.19401647 5.066814 2.392763 8.273015 -1.5847273 -3.2143493
-0.6778876 -4.9188232 -2.6271858 -3.0668206 4.8715706 1.2364748 6.034819 -2.6020467
-0.03819761 -1.205907 2.089835 1.5727818 -0.5841096 8.1388035 2.7278938 7.290618
2.456852 10.120326 -5.0547605 -7.6968174 0.96010005 -1.3910903 -3.3802893 -3.082885
5.52577 -0.53326946 11.041819 -11.05841 -2.3842242 3.345012 1.204359 9.891579
-2.902025 4.3204765 7.86786 2.568351 -4.7305346 -0.5272204 -1.415446 3.8274517
-11.837669 -3.8894966 7.441362 3.4917412 0.6991013 -7.842593 16.026665 -15.419934
4.2719626 -4.9565997 -3.4162772 -0.40489975 9.635525 -2.559452 4.6998296 8.103852
-0.9553191 0.4168586 -1.2537845 -7.5318704 1.8177485 4.3609214 2.434176 1.3459997
4.4599442 -1.6901482 0.102736965 9.475767 -2.2204235 -0.0106595475 -2.8412058 5.136267
10.096084 5.290162 7.916788 -11.046619 -5.721387 0.6200563 -4.618273 0.38688102
3.5974135 8.42625 -4.147644 -6.3599844 -1.9123919 -7.343556 1.2445952 -1.187545
3.1680832 -3.202468 -2.022345 -1.250583 -3.6592498 -8.43066 -5.0025263 -4.2521973
7.6530733 -3.159974 -0.79167753 14.743147 8.316154 8.597426 -2.2116132 0.62022376
-9.358338 -0.13742906 -6.49496 -5.5510306 2.9384625 3.9586375 -1.818173 -0.8349098
10.521576 0.68416774 3.6968765 0.0071526417 7.7917085 6.288378 -4.584725 -9.449252
-0.03045482 1.2981008 -5.2883067 -1.0403275 0.8001451 -4.7884035 6.7522407 -3.8660638
4.562037 1.2056631 2.3111877 2.732516 -2.3822303 0.2791607 0.31521738 1.9302083
-11.982481 -1.8059477 -3.873105 -4.1591163 -3.5487785 -3.7453294 2.1563337 1.5147823
13.442903 4.388842 -5.731843 -14.264103 0.47127855 -5.438785 4.2377872 1.2109112
00000000: f981 163e 1ea4 ad40 f990 47c1 011c a53f
00000010: b5cc 5740 7d77 6941 6571 1ac1 5815 7740
00000020: a058 c0c0 69de 35c1 fd14 88bf daed 623f
00000030: 399a fac0 ecb5 a6c0 07c5 efc0 6977 9841
00000040: 5a6e 0641 69b8 a340 6afb 96c0 5131 6ac0
00000050: 924a 4ebf 6b9a 0541 57f4 d9c0 b804 1741
00000060: adb7 a73e 2428 6bc0 949a b8be 9b1c 09c0
00000070: 7500 06c1 0632 2c40 9173 d740 e1d7 88c0
00000080: 368b 0d41 a12a dc3f 40f2 9340 35ea a640
00000090: 9d82 2a40 a45a 8e40 1dfd 1340 866d 3ac1
000000a0: 14cf e1c0 5af6 963f 7f84 1240 b2dd 5240
000000b0: da9f c9c0 a6a5 7a40 a6b6 3740 7c1c 24c1
000000c0: a357 8640 23ad 3841 6ca8 7cc0 48b9 1fc1
000000d0: db41 8640 2ec3 3abe 5516 d7bf 4d0e 1341
000000e0: da89 b3bd f749 6440 7f11 e0c0 cf7c bebf
000000f0: 7631 cd40 a518 4640 2ad7 8f40 2eec af40
00000100: 59cf b9c0 23c0 7f40 7c8e eaba dcbe afc0
00000110: 166c 893f 6a2c d2c0 d9f5 183f 3918 b13e
00000120: 606d b83d 7a29 a7bf a85d 3040 05f1 51c0
00000130: ceb4 1740 dfa7 be3e 695a c9bf 5691 3b41
00000140: 96bb bbbd cf44 5040 2fb2 5bc0 49b8 6840
00000150: a358 90c0 75f4 4bc0 9b2b 9bc0 85c5 eb40
00000160: 60eb 9bc0 89a7 9740 72ae d8c0 30bf 5e3f
00000170: d2b7 6d3f 2f0c 3b40 0dac a3c0 c48f 39c0
00000180: 7db5 b8c0 b56a 5dbe 41ac 46be 5723 a240
00000190: 0723 1940 455e 0441 58d8 cabf e6b7 4dc0
000001a0: 0b8a 2dbf 0067 9dc0 d023 28c0 ca46 44c0
000001b0: e8e3 9b40 ce44 9e3f 3d1d c140 ef87 26c0
000001c0: 1975 1cbd 295b 9abf dbbf 0540 ea50 c93f
000001d0: 3588 15bf 8a38 0241 d095 2e40 be4c e940
000001e0: 103d 1d40 dbec 2141 99c0 a1c0 544c f6c0
000001f0: 1ec9 753f 3f0f b2bf a956 58c0 fd4d 45c0
00000200: 1cd3 b040 5984 08bf 4aab 3041 3fef 30c1
00000210: 2197 18c0 ad14 5640 7028 9a3f e843 1e41
00000220: c7ba 39c0 5841 8a40 82c5 fb40 dd5f 2440
00000230: 8a60 97c0 ebf7 06bf 562d b5bf f8f4 7440
00000240: 1867 3dc1 83ed 78c0 a31f ee40 b078 5f40
00000250: 4ef8 323f 86f6 fac0 9c36 8041 0db8 76c1
00000260: ebb3 8840 779c 9ec0 49a4 5ac0 054f cfbe
00000270: 1c2b 1a41 10ce 23c0 0165 9640 61a9 0141
00000280: cb8f 74bf 7e6e d53e 037c a0bf 1505 f1c0
00000290: fcab e83f ab8c 8b40 8ac9 1b40 b849 ac3f
000002a0: ddb7 8e40 c756 d8bf c267 d23d be9c 1741
000002b0: 6b1b 0ec0 62a5 2ebc 51d6 35c0 4d5c a440
000002c0: 8f89 2141 0249 a940 5456 fd40 f4be 30c1
000002d0: 9a15 b7c0 02bc 1e3f e4c8 93c0 4515 c63e
000002e0: 063c 6640 ecd1 0641 80b9 84c0 fe84 cbc0
000002f0: 42c9 f4bf 69fe eac0 e54e 9f3f 7901 98bf
00000300: e0c1 4a40 3cf5 4cc0 1a6e 01c0 1b13 a0bf
00000310: 2631 6ac0 fce3 06c1 b214 a0c0 0012 88c0
00000320: fae5 f440 043d 4ac0 61ab 4abf eee3 6b41
00000330: f70e 0541 0f8f 0941 128b 0dc0 fcc6 1e3f
00000340: c1bb 15c1 34ba 0cbe b6d6 cfc0 0ba2 b1c0
00000350: c50f 3c40 515a 7d40 e5b9 e8bf a6bc 55bf
00000360: 6058 2841 9e25 2f3f a099 6c40 b560 ea3b
00000370: ad55 f940 643a c940 11b6 92c0 2330 17c1
00000380: 637c f9bc 2b28 a63f cf39 a9c0 7429 85bf
00000390: 4fd6 4c3f 9a3a 99c0 5b12 d840 976d 77c0
000003a0: 35fc 9140 2b53 9a3f 80ea 1340 8be1 2e40
000003b0: 7676 18c0 27ee 8e3e 2c64 a13e 1111 f73f
000003c0: 3eb8 3fc1 4b29 e7bf f4e0 77c0 7b17 85c0
000003d0: 301f 63c0 7ab3 6fc0 5f01 0a40 63e4 c13f
000003e0: 2116 5741 6571 8c40 426b b7c0 c439 64c1
000003f0: 6c4b f13e 870a aec0 f49b 8740 23ff 9a3f
