outs/Laplace1D/Laplace1D_sin/HMC_2022.12.16-13.56.23/thetas/theta_015/w_02.npy (npy, 10128 bytes, 1 tensors)

array f4 [50, 50]
00000000: 8a90 96bf 7b64 93bf 3c48 a6be 5e76 4abe
00000010: 1d2a 1ebf a48c 773f 35a5 ea3d d329 29be
00000020: 7194 54bf 1d9c 673c db54 e0be 8ab4 48bf
00000030: d5c7 6dbf 9ace 773f eab1 e2bf 701f d0be
00000040: f7b1 163f fa37 2ebf 8d42 e43c 6762 013f
00000050: aaf3 83be feb8 94bf e990 92bf 4576 933f
00000060: 0e64 9bbf e523 cb3f 3d70 b93b 3fbd a3bf
00000070: ecca 3c3f f14f e4bf b3a4 183f f434 0fbf
00000080: c756 bfbf 8abc af3f ace2 8a3f 9b33 aabe
00000090: 6e7b 2b3f f6c3 23be 0c41 43be 2f37 c23f
000000a0: dfb3 cb3f 2aee 1240 1137 30bf a9b6 123f
000000b0: b7ce 0abf 73b2 8a3f 3656 b43d 6901 21bf
000000c0: 3d2f 4f3f 625c f23d 43b6 d1bf a90f 7dbf
000000d0: b3c1 d1be 1ce5 a3bf 29d0 023e 941f 36bf
000000e0: 417d cbbe 3368 ddbe 479e 91bd 5876 87bf
000000f0: 7092 42bf f770 af3e c3c0 bf3f d3a2 663f
00000100: ff28 b8bf edbe d53c ea3e 64bf 1a41 f83e
00000110: 2902 aebf df7c f63d afe3 71bf 1053 653f
00000120: eef5 37be c97c 2d3e 2fd0 8c3f 97c8 cebf
00000130: 39a0 28bf f9fb cb3d 72a5 893f c4f0 2ebf
00000140: 6d25 fdbd 07e7 ccbe 61de 343e f3bd 17be
00000150: 3535 9d3e 3b2d 21bf beae a6bf 0e71 0fc0
00000160: 03b5 f1be 0d62 cebe b067 c43e 19f8 91be
00000170: 3d56 84bd 78c5 983f d2b6 493e 841f 97be
00000180: 4aee 993f db99 c63f 28ec a33e 1a20 8dbe
00000190: 5c4c d6bf f1b6 d73d 88bc 333f e1e8 313e
000001a0: f6e9 edbd 0a18 37bf d78c e83f a877 9bbf
000001b0: b2e2 863f ed4f a63f 4ec7 de3f 09e9 d3bd
000001c0: b989 973d 75c6 28bf 62b0 84bf 4629 3bbf
000001d0: 17c7 ae3d 7f85 94bf 354c 213f fcd7 d33f
000001e0: 98e1 613d ab74 fe3d b627 9c3d 4833 cfbf
000001f0: 34b2 33bf b8b3 38bf 3815 b63e 2e20 09be
00000200: 5b52 933f 918e 1fbe e1b3 d73e 389c cf3d
00000210: c35c 423d 4ad7 50bf 49f6 1abf d72d 07c0
00000220: c6e0 953f a78f 063f 3697 943f d709 59bf
00000230: 16fc b5bf 6f80 29bf 0339 ef3d 5957 233d
00000240: 9be2 b7be 0908 8d3e 7831 bf3f 667b 693e
00000250: f44c 27bf 7796 ed3e f889 2abf 35b6 1640
00000260: 6c7c 743f 6426 a5be 0041 b63e 8862 653e
00000270: 05e8 6a3e e250 983f 3846 a63f 1eac 323e
00000280: 6f5f 4c3e 8102 27be 4f23 df3f abbf 07c0
00000290: 921e d53f c66b 953d 4757 3abf ee6e 523f
000002a0: 7e27 eebf a762 b8be 3622 90be 892c cbbe
000002b0: 3c83 573f c669 8bbf a015 093f c1fe 4dbf
000002c0: 3088 153e 9a35 253e 87a2 9abf 3cf4 d0bc
000002d0: 8e72 b4be 41fe 793f def6 79bf 38bd 86be
000002e0: 05bf e6be 17a0 993e 5d3d 233c 2c64 893f
000002f0: aae1 fd3e 4dce 14bf 491c 873f 3d83 333e
00000300: 891f 013f 2f32 9d3b 778a 2540 0d21 063f
00000310: cc1f 8b3e afee 4c3e 6048 bebf cdd7 903e
00000320: 7135 92be fb8f 04bf 120c debe 6074 053e
00000330: 6544 3dbf 6a20 b13d f5cf f63f 6063 a3bb
00000340: 43b6 d03f 87db 5fbf 1909 5a3f 5dd9 8bbe
00000350: a952 6cbf 1b76 bdbe f039 ed3f 6b11 fdbe
00000360: e264 76bf c8d8 49bd 7041 81be b3fc ab3d
00000370: e7d5 843f 1cf3 a3bf d1f3 263f c844 0e40
00000380: ceee cb3e f8e1 8f3f 2e14 80bf 8fda 793f
00000390: 0e98 a6bf e20c 19bf 11ae 96bc 24a2 af3e
000003a0: ef93 6ebf d2a9 013f 09c7 413f b89e 953f
000003b0: b7f8 14bf 3300 a8bf fe83 833e daad 97be
000003c0: 7a64 0440 b0fb 913f 0fb5 3dbe 498a b5bf
000003d0: 7347 e93e 81eb 8dbf 6097 d8be fbb0 c43e
000003e0: a03b 953d a46b eebf 2d93 33bf ff79 c33f
000003f0: 9522 e5bd 1c3a c83f 39a7 dabf 83bf e43c
-1.176286 -1.1515039 -0.32476985 -0.19771716 -0.6178301 0.96698976 0.11457292 -0.16519861
-0.83039004 0.014136341 -0.4381474 -0.7840048 -0.92883044 0.96799624 -1.7710545 -0.40648985
0.588653 -0.68054163 0.027863765 0.50540775 -0.25771838 -1.1618955 -1.1450473 1.1520468
-1.2139909 1.5870329 0.005659132 -1.2792128 0.73747134 -1.7836896 0.5962631 -0.55940175
-1.4948357 1.3729413 1.0850425 -0.33242497 0.66985214 -0.15992722 -0.19067782 1.5173091
1.5914267 2.2957864 -0.68834025 0.5730997 -0.5422167 1.0835708 0.08805506 -0.62892777
0.80931455 0.11834027 -1.6383747 -0.9885202 -0.40968093 -1.2804294 0.1277472 -0.71141934
-0.39744 -0.4324356 -0.07110267 -1.0582991 -0.76004696 0.34265873 1.4980701 0.900922
-1.4387511 0.026092017 -0.891585 0.4848717 -1.3594409 0.12035536 -0.9448804 0.8957987
-0.17964908 0.16942133 1.1001033 -1.6154965 -0.6586948 0.09960169 1.0753615 -0.6833613
-0.12360654 -0.4002001 0.17662956 -0.14818554 0.30704656 -0.6295964 -1.3022077 -2.2412753
-0.47208413 -0.40309182 0.38360357 -0.28509596 -0.06461761 1.1935263 0.19698647 -0.29516232
1.2025845 1.5515703 0.3201611 -0.27563554 -1.6742053 0.1053294 0.7020955 0.17373993
-0.1161689 -0.71521056 1.8167981 -1.2145891 1.0537932 1.2993141 1.7404573 -0.10347182
0.073993154 -0.6592782 -1.0366328 -0.73109853 0.08534067 -1.160324 0.6300691 1.6550288
0.055146784 0.124245964 0.07624762 -1.6187525 -0.7019379 -0.7214923 0.35563064 -0.13391182
1.1509508 -0.15581729 0.42129424 0.10137218 0.047451746 -0.81578505 -0.6053205 -2.1121728
1.170922 0.52562946 1.1608646 -0.8478064 -1.4217556 -0.662116 0.11680796 0.039878223
-0.35915074 0.27545193 1.4936972 0.22800979 -0.65351796 0.46403858 -0.66616774 2.354871
0.9550235 -0.32255852 0.35596466 0.22400868 0.22940071 1.1899683 1.2990179 0.1744847
0.1995828 -0.16309549 1.743265 -2.1210735 1.6649954 0.07295947 -0.72789425 0.82200515
-1.8605802 -0.36012766 -0.281511 -0.39682415 0.8418462 -1.0891654 0.5354862 -0.8046685
0.14602733 0.16133729 -1.208085 -0.025507085 -0.35243648 0.97653586 -0.97642314 -0.26316237
-0.4506761 0.3000495 0.009963361 1.0733695 0.4958623 -0.5812729 1.0555507 0.17530532
0.50438744 0.004797242 2.5865762 0.5239418 0.27172697 0.20012926 -1.4865837 0.28289643
-0.28556398 -0.51782197 -0.43368584 0.13032675 -0.73932487 0.086487606 1.9282213 -0.0049862117
1.6305622 -0.8744435 0.8517013 -0.27314273 -0.9231363 -0.3700417 1.8533306 -0.4942735
-0.96247685 -0.049279004 -0.25245237 0.08397808 1.0377778 -1.2808566 0.65215784 2.222948
0.3983063 1.1240835 -1.0006158 0.9759912 -1.3015153 -0.5978528 -0.018393548 0.3430339
-0.9319448 0.5064975 0.7569433 1.1689062 -0.5819201 -1.3125061 0.2568664 -0.29624826
2.0686326 1.1404934 -0.185261 -1.4182826 0.45562324 -1.1087495 -0.4230299 0.38416275
0.07286763 -1.8626599 -0.7014645 1.5271605 -0.111882366 1.5642734 -1.7082282 0.027923351
