outs/Laplace1D/Laplace1D_cos/HMC_2022.09.09-17.21.39/thetas/theta_4400/w_02.npy (npy, 1152 bytes, 1 tensors)

array f4 [16, 16]
000000 1e ad 7f bf 96 b6 b0 40 00 47 67 c1 15 66 17 40
       -0.9987353 5.5222883 -14.454834 2.3656056
000010 67 45 ad 40 9f 3f 66 41 05 98 31 c1 c3 e7 a1 40
       5.414722 14.3905325 -11.099614 5.059541
000020 9b 78 9a c0 b7 97 3e c1 17 2c eb 3d 25 9e d5 be
       -4.8272223 -11.91204 0.11483019 -0.41722217
000030 cb 6e 1f c1 11 a6 46 c0 b2 c9 2d c1 d1 09 9d 41
       -9.964549 -3.103886 -10.861742 19.629793
000040 01 f5 f5 40 f9 41 82 40 b8 60 08 c1 31 04 9c c0
       7.6861577 4.0705533 -8.523613 -4.8755116
000050 da 49 6b bf 54 6f 1c 41 46 78 08 c1 5f dc ff 40
       -0.91909564 9.77718 -8.529364 7.995651
000060 6b 9f 23 3f 13 e6 10 c0 3e e4 e7 be 82 8f 41 c0
       0.6391513 -2.2640426 -0.45291322 -3.024384
000070 51 b0 eb c0 60 c2 93 bf 12 87 18 41 8a d3 b5 c0
       -7.365273 -1.1543694 9.532976 -5.6820726
000080 b2 70 3a 41 4e 6b 0d 40 d5 ed 42 40 9b da 6f 40
       11.6525135 2.2096744 3.045766 3.7477176
000090 89 b5 96 40 b7 4e a0 40 ee fd 03 bf 9a fc 6c c1
       4.70966 5.0096087 -0.5155934 -14.81167
0000a0 28 a1 18 c1 e6 0e 56 40 83 cd 69 40 23 dd f6 3f
       -9.539345 3.3446593 3.6531684 1.9286236
0000b0 e4 fc 00 c1 4a 16 68 40 05 b6 38 c0 d6 27 1a c1
       -8.061741 3.6263604 -2.8861096 -9.634726
0000c0 44 02 b0 40 93 39 2b 41 df 6b 31 c0 93 3d 4f c1
       5.5002766 10.701556 -2.772209 -12.952533
0000d0 f2 c0 b1 40 87 7c 3d bf d8 35 3c 3d ab fe 0c 41
       5.554803 -0.7401814 0.045949787 8.812175
0000e0 b4 10 31 bf 26 32 4d 40 b1 15 d2 c0 ba ea 06 c0
       -0.6916611 3.2061858 -6.565148 -2.1080766
0000f0 6c e3 d1 40 b9 48 6e 40 29 c3 72 40 52 40 be 40
       6.5590115 3.7231886 3.7931616 5.9453516
000100 d4 3f c0 c0 a1 5e b4 40 f5 e3 46 3e e9 34 c3 c0
       -6.0077915 5.6365514 0.19422896 -6.1002088
000110 c0 06 6f 3f bd 96 e3 c0 e8 0c 75 3f cd 0b 1d 40
       0.93369675 -7.1121507 0.9572282 2.4538453
000120 88 87 e9 bf fd 5f 48 c0 57 63 47 40 91 ac 08 c0
       -1.8244486 -3.1308587 3.1154382 -2.1355326
000130 cb a3 60 40 c4 d7 21 40 49 7b 46 c0 4e 1e 3f 41
       3.5099971 2.5287943 -3.1012747 11.944899
000140 0a d2 89 c0 e6 d3 cc 40 12 fa 6a c0 62 4e 98 40
       -4.3068895 6.4008665 -3.671513 4.759568
000150 d8 db f5 c0 47 8e b8 c0 1c 9f db c0 60 b7 d7 40
       -7.6830864 -5.767368 -6.8631725 6.7411346
000160 55 f4 79 c0 12 6b 0c 41 c4 fd b0 c0 41 da 3e c0
       -3.9055378 8.77614 -5.5309772 -2.9820712
000170 15 ac 6f 40 62 3f 18 40 69 d4 b3 c0 89 5d 85 c0
       3.744878 2.3788686 -5.619679 -4.167668
000180 8c 22 24 c0 9f 42 e8 be cd 1e be 3f 9b 8f e6 40
       -2.5646086 -0.45363328 1.485315 7.20503
000190 e5 e4 16 40 49 da 1e 41 73 66 8a c0 b2 ea 75 c0
       2.3577206 9.928292 -4.325006 -3.8424497
0001a0 8f c4 31 c0 b0 d7 02 c1 2a 20 2c c0 e3 20 0d c0
       -2.777622 -8.177658 -2.6894631 -2.2051322
0001b0 e7 81 86 40 9d f1 c3 3f 46 04 e6 40 84 e6 22 be
       4.203357 1.530811 7.1880217 -0.15908247
0001c0 79 1b d0 3f 92 f1 1e c0 65 de 47 40 01 88 97 40
       1.6258384 -2.4834943 3.122949 4.735352
0001d0 68 b4 47 3e 46 f2 0a 41 8c 44 b3 3f ea 4b c6 40
       0.19502413 8.684149 1.4005294 6.196767
0001e0 16 62 88 40 f0 e0 41 41 2a ff c1 c0 9e bc 9e c0
       4.2619734 12.117416 -6.062398 -4.9605246
0001f0 39 1c 95 3f 99 a9 bd be 24 e1 07 c0 56 42 1b c0
       1.1649238 -0.37043455 -2.1231165 -2.4259238
000200 e8 a0 d3 40 b7 78 0e 3f 75 36 50 41 38 27 7d c1
       6.613392 0.55652946 13.013295 -15.822075
000210 1a 21 1f c0 7d b6 99 40 a3 2b c6 3e 70 9d 3c 41
       -2.4863954 4.8035264 0.38705167 11.788437
000220 16 5e 12 c0 6a 50 ad 40 99 61 23 41 bb 1f 34 40
       -2.2869925 5.416066 10.211328 2.8144367
000230 fb f0 92 c0 a4 1e a8 3e 1f 33 14 c0 12 5f 0b 40
       -4.5919166 0.32835877 -2.3156202 2.1776776
000240 30 0f 2e c1 64 ef c2 c0 12 65 1a 41 20 8a eb 3f
       -10.878708 -6.0917225 9.649675 1.8401527
000250 e0 9f 32 3e ea 9c 04 c1 3c 9b 92 41 69 4f 67 c1
       0.174438 -8.288309 18.325798 -14.456887
000260 df b7 62 3f 24 7f b0 c0 00 07 3b c0 13 08 6e 3f
       0.88561815 -5.51552 -2.9223022 0.9298107
000270 54 c9 40 41 7f 59 8e c0 ae 46 b8 40 80 76 25 41
       12.049152 -4.448425 5.758628 10.341431
000280 12 f1 a9 3f b5 51 b8 3f 22 63 bf 3f 62 52 35 c1
       1.3276694 1.4399935 1.4952128 -11.332613
000290 f0 79 1f 3f c0 43 9c 40 5a d8 0f bf ea 31 26 3f
       0.62295437 4.8832703 -0.561895 0.6491991
0002a0 60 32 9e 40 a2 33 7d c0 3e 69 e5 bf 07 92 27 41
       4.9436493 -3.9562764 -1.7922742 10.473151
0002b0 76 d0 65 c0 b6 8a 8f 3f 70 a0 9c c0 9a f6 e1 40
       -3.5908484 1.1214206 -4.8945847 7.0613527
0002c0 9b 55 35 41 af 8d 07 41 48 db 1c 41 3d 9e 38 c1
       11.3334 8.472091 9.803535 -11.538632
0002d0 dd d1 b4 c0 b7 be 56 40 28 49 04 bf 8d 93 11 40
       -5.650618 3.3553903 -0.5167413 2.2746308
0002e0 68 ac 8d 40 ca a2 30 41 10 3b 9e c0 9e 4b ce c0
       4.4272957 11.039743 -4.94471 -6.4467306
0002f0 fd 97 99 bf 59 5e bb c0 fc 83 9b bf cb b2 5a c0
       -1.1999508 -5.855267 -1.2149653 -3.4171627
000300 cb ee ba 40 ba 03 24 c0 f2 40 17 c0 c7 5d 51 c0
       5.8416495 -2.5627275 -2.363339 -3.2713487
000310 37 a1 63 c0 05 2b 0b c1 54 51 e7 c0 81 c1 5d c0
       -3.5567148 -8.698003 -7.2286777 -3.4649355
000320 fe 06 11 41 e1 91 27 c0 3f 75 fc 3c ac 37 69 41
       9.064207 -2.6182787 0.030817626 14.576092
000330 22 74 49 41 3b 13 00 41 0f 37 96 bf 41 f9 16 bf
       12.590853 8.004695 -1.1735553 -0.5897408
000340 f5 c6 22 c1 56 1e 15 c0 63 7c 0a c1 55 6a 08 c0
       -10.1735735 -2.3299766 -8.655368 -2.13149
000350 d0 55 3f 40 5a 5c 84 40 4a 55 b3 bf ca fc fc bc
       2.9896126 4.1362734 -1.4010403 -0.030882258
000360 84 a7 cd 40 19 16 3a 40 2a ac 06 40 77 e2 5b 40
       6.4266987 2.9075987 2.104258 3.4356973
000370 d1 b6 48 41 7c 52 9b 40 fd de 53 c0 5f 1d ff c0
       12.544633 4.853819 -3.3104851 -7.9723353
000380 49 ce 1b 40 07 01 b3 3f 5d f6 62 c0 6e b7 7f c0
       2.4344656 1.3984689 -3.5462868 -3.9955707
000390 93 2b bb 3f ca 4b c8 c0 88 1d 6a 40 af 93 d5 bf
       1.4622673 -6.2592516 3.6580524 -1.6685694
0003a0 30 7b 02 40 59 84 23 40 20 90 95 3f 25 ef 4a 40
       2.0387688 2.5549529 1.1684608 3.1708462
0003b0 18 65 87 c0 0b 0a 32 40 a1 8f 48 40 a6 b4 74 40
       -4.2310905 2.781863 3.1337664 3.823526
0003c0 84 73 70 c1 69 28 ac be 1f 8d 6c c0 77 95 9b c0
       -15.028202 -0.3362458 -3.6961133 -4.861995
0003d0 1b 70 5d c0 16 82 8c c0 f6 05 9e 40 fb 27 81 40
       -3.4599674 -4.3908796 4.9382277 4.0361304
0003e0 5e c2 4f 41 31 7d 99 40 5a 71 fa c0 6b 8d 5b c1
       12.984953 4.796532 -7.826337 -13.722026
0003f0 8e 8c 11 40 5a 29 cc c0 c6 13 bb 40 8b b7 34 40
       2.2742038 -6.380048 5.8461637 2.8237026
