outs/Laplace1D/Laplace1D_cos/HMC_2022.09.09-17.21.39/thetas/theta_1841/w_02.npy (npy, 1152 bytes, 1 tensors)

array f4 [16, 16]
0	0x402217b7	2.5326974
1	0x3f963bd1	1.1737005
2	0xc10138b3	-8.076343
3	0x3fc9b939	1.575965
4	0xc00cd990	-2.200779
5	0x40804075	4.0078683
6	0x3d7c2510	0.061558783
7	0x3caef33a	0.021356214
8	0xc023c8c5	-2.559129
9	0xc0e80989	-7.251164
10	0x40335a70	2.8023949
11	0x40345d2d	2.818187
12	0x3f49a715	0.7877057
13	0xc00f8fef	-2.24316
14	0xc08cb49a	-4.397046
15	0x4107ad25	8.479772
16	0x40fa166e	7.815238
17	0x3ff5934c	1.9185576
18	0xc024b62e	-2.5736194
19	0xc03ca061	-2.9472888
20	0x4024e748	2.5766163
21	0x3ef0212b	0.46900305
22	0x3ea9b2e7	0.33144304
23	0x4094f77c	4.6552105
24	0xbf90f600	-1.1325073
25	0xc03770bb	-2.8662555
26	0x40497f14	3.1483812
27	0xc0335008	-2.8017597
28	0xc04eafd8	-3.2294827
29	0x40111286	2.2667556
30	0x40b34240	5.601837
31	0x3e0af3b7	0.13569532
32	0x3f8abbcf	1.0838565
33	0xc03e528a	-2.9737878
34	0x3e85c5cf	0.26127478
35	0xbf73c031	-0.95215136
36	0x3e086079	0.13318051
37	0x40172959	2.3618987
38	0x3fae72e2	1.362881
39	0xc085825a	-4.172162
40	0xc0db8321	-6.859757
41	0x3f726a88	0.94693804
42	0xc0dfad5a	-6.989911
43	0x40a7ef1f	5.2479396
44	0xc08527df	-4.161117
45	0x40941fb0	4.628868
46	0x3d77ae60	0.06046903
47	0xc02eaeea	-2.729426
48	0x4018e97c	2.3892508
49	0x40e3c320	7.117569
50	0x3d36a5a1	0.04459155
51	0xc0d4b1b6	-6.646693
52	0x3d987d5d	0.07445786
53	0x3fdd026a	1.7266362
54	0x3fa87294	1.3159966
55	0x3f0a043f	0.5391273
56	0xc012da5f	-2.2945783
57	0x40e10ce0	7.0328217
58	0xc0fac222	-7.836198
59	0x3f8b00c0	1.0859604
60	0x3fc62f48	1.5483179
61	0x40777297	3.866369
62	0x40aa4519	5.320935
63	0xbf2d07e4	-0.67590165
64	0xc0909f67	-4.5194583
65	0x40393f2e	2.8944812
66	0x3f34d126	0.70631635
67	0x3f322a4b	0.69595784
68	0x40c29a5f	6.081344
69	0xc0af3a22	-5.4758463
70	0xbfaaea97	-1.3352841
71	0x3e82fd64	0.25583947
72	0xbf92222b	-1.1416677
73	0xbf17ffba	-0.5937458
74	0xc053e4ea	-3.3108468
75	0xc01da310	-2.4630775
76	0x40a12b80	5.03656
77	0x401066de	2.2562785
78	0xc00d39aa	-2.2066445
79	0x40d90048	6.7812843
80	0xbfef1bf2	-1.8680403
81	0xbec224fe	-0.37918848
82	0x404c1d2e	3.189281
83	0x40b9ce01	5.806397
84	0xc047290a	-3.1118798
85	0x4030e34c	2.763873
86	0xc06c4582	-3.6917424
87	0x402429be	2.5650477
88	0xbfc5b2f7	-1.5445241
89	0x408e61c5	4.4494348
90	0xc00f2498	-2.2366085
91	0x40190c35	2.39137
92	0xc06aba56	-3.667623
93	0xbfaa7d9d	-1.3319584
94	0x3f90da1b	1.131656
95	0xc0aba7ff	-5.3642573
96	0x3f38dd82	0.72212994
97	0xc02cf41c	-2.7023993
98	0xbf290af3	-0.6603233
99	0x3f2c22f6	0.67240846
100	0x40922524	4.567034
101	0x3ea7e5dd	0.3279256
102	0xc08f9ac2	-4.4876413
103	0xc092995e	-4.5812216
104	0xbe885dce	-0.26634067
105	0xc09515ef	-4.6589274
106	0x3db7dc9b	0.08977624
107	0xc0010ef1	-2.016537
108	0x403e85db	2.97692
109	0x3fdf0019	1.7421905
110	0x40b56bad	5.669394
111	0xc07d2468	-3.955347
112	0xc01c67d0	-2.4438362
113	0xc085c78d	-4.180609
114	0x3f8f3877	1.1189107
115	0xc0397dc3	-2.898301
116	0x4069eede	3.6552043
117	0x400b9bcf	2.1813848
118	0x40a4ca29	5.1496778
119	0x411f68dc	9.9631
120	0xbf3ffb82	-0.74993145
121	0xbed406f3	-0.41411552
122	0xbe70a791	-0.23501422
123	0xc0517a10	-3.273075
124	0xc01c06e5	-2.4379208
125	0x3fcb1652	1.5866187
126	0xbf9e0012	-1.2343771
127	0x3fadfb30	1.3592281
128	0xbfa99625	-1.3248945
129	0xc019801e	-2.3984447
130	0x407a881e	3.914558
131	0xc0cacd69	-6.3375745
132	0x3fd41dcc	1.6571593
133	0x3f6fb0e6	0.936293
134	0x402edf02	2.7323613
135	0x40b319ab	5.5968833
136	0xc064535d	-3.567588
137	0xbfbd648c	-1.479631
138	0x4009da08	2.1539326
139	0xbee842b5	-0.45363393
140	0xbf910253	-1.1328834
141	0x40251a3f	2.579727
142	0xc08a222f	-4.316673
143	0x3f4d2159	0.8012901
144	0xc13142a8	-11.0787735
145	0xbfdcb1c0	-1.7241745
146	0x40b4271f	5.6297755
147	0xc030eb72	-2.7643704
148	0x40803f79	4.007748
149	0xc093da59	-4.620404
150	0x415cb3de	13.793913
151	0xc1160b5f	-9.377776
152	0x40af565c	5.479292
153	0xc06d76fe	-3.7103877
154	0xbfda9ea4	-1.7079663
155	0xc092ef37	-4.591701
156	0xbf551e82	-0.83249676
157	0xc118ee66	-9.558203
158	0x3f2ddad7	0.6791205
159	0x409807b7	4.7509418
160	0x3e3bcd84	0.18340117
161	0xbfac44d8	-1.345851
162	0x403c7222	2.944466
163	0xc0bfc235	-5.992457
164	0x40196dbd	2.397323
165	0xbfd7885c	-1.6838489
166	0xbe4fca38	-0.20291984
167	0xc085c532	-4.1803217
168	0x3fde3a9e	1.7361639
169	0xbfff0f21	-1.9926492
170	0x40196adb	2.397147
171	0x400f4f00	2.2391968
172	0x3f84050d	1.0314041
173	0xc047cd93	-3.1219223
174	0xbedc68e8	-0.43048787
175	0x3fb7a0a6	1.4345901
176	0x4051fc59	3.281027
177	0x40ae4de4	5.447008
178	0x3f234e7d	0.6379164
179	0xc0b8bb31	-5.7728505
180	0xc015ad64	-2.338708
181	0xc09a41d5	-4.820536
182	0xc04306d2	-3.0472913
183	0xc00d8b1c	-2.2116156
184	0x4083c1a0	4.117386
185	0x4117ea9c	9.494778
186	0xc0fda40f	-7.9262767
187	0xbfb7ba9e	-1.4353826
188	0xc076b16d	-3.8545792
189	0xc098b5d7	-4.7721972
190	0x408330e1	4.0997167
191	0xc0783a74	-3.8785677
192	0xc079337b	-3.893767
193	0xc066b55a	-3.6048188
194	0x40ad1d86	5.409854
195	0xc1025c6b	-8.147563
196	0xbefbaf66	-0.49157256
197	0xbfd013b8	-1.6256018
198	0xbf9ec2cb	-1.2403196
199	0xc0480e8e	-3.1258883
200	0xbe5e584b	-0.21713369
201	0xc0be1b20	-5.940811
202	0xc04ca4fa	-3.1975694
203	0x40e09f1f	7.019424
204	0x3fb5a9d1	1.4192449
205	0x400558c3	2.0835426
206	0xbeed39ac	-0.46333063
207	0x4037de88	2.8729572
208	0xc056d0a8	-3.3564854
209	0x3f5d78d2	0.8651248
210	0xc0ba5af2	-5.8236017
211	0xc028ab4c	-2.6354551
212	0x400d366f	2.2064474
213	0x40530bd7	3.2975976
214	0xc08ccc60	-4.399948
215	0xc020b5c2	-2.5110936
216	0x408fb434	4.4907475
217	0xc0acefcc	-5.404272
218	0x404a99ce	3.1656375
219	0xc006cd23	-2.1062706
220	0x40dbb95c	6.866377
221	0x3e35305e	0.17694232
222	0xc05a7777	-3.4135416
223	0xbff3f3f9	-1.905883
224	0xc041175e	-3.0170512
225	0x3f34ec3a	0.70672953
226	0xc04e9e8c	-3.228427
227	0x3edb2ff2	0.42810017
228	0x4030f89b	2.7651737
229	0xbf78eff7	-0.9724116
230	0x4000ed02	2.0144658
231	0xc08081f1	-4.015862
232	0x40c362a6	6.105792
233	0xbf761288	-0.96122026
234	0xc02a6e03	-2.6629646
235	0xc04304af	-3.0471609
236	0xc012127c	-2.2823782
237	0x401d5d64	2.458825
238	0x407887dc	3.8832922
239	0xbf4073d0	-0.75176716
240	0xc09ece4c	-4.9626827
241	0x3f6ddb30	0.9291258
242	0xc0257221	-2.5850909
243	0xbf886d85	-1.0658423
244	0xc027c298	-2.621252
245	0xbea3c031	-0.31982568
246	0xbf4742e1	-0.77836424
247	0x3ffb3b30	1.9627438
248	0x401e9c97	2.4783075
249	0x3fdf7813	1.7458519
250	0xc08a5262	-4.3225565
251	0xc0a0a521	-5.0201573
252	0xc0943b78	-4.6322594
253	0xbf41cacf	-0.75700086
254	0x4058e71b	3.3891056
255	0x408f39b0	4.475792
