outs/1D-laplace/HMC_2022.08.31-20.46.17/thetas/theta_063/w_02.npy (npy, 1152 bytes, 1 tensors)

array f4 [16, 16]
000000 82 eb af bf d6 5e 67 40 7a 1e 74 bf 15 b5 b1 3f
       -1.3743746 3.6151633 -0.95359004 1.3883387
000010 0b 05 c5 bf 91 c6 42 bf 89 f7 24 c0 3d f2 37 c0
       -1.5392164 -0.7608424 -2.5776083 -2.87416
000020 c6 1c 92 3e 98 b2 19 40 1b b8 cf bf 13 d2 40 3f
       0.28537577 2.4015255 -1.622806 0.7532055
000030 5c 11 2f bf 9c 5c d9 bf 25 35 47 40 ff bf fb bf
       -0.68385863 -1.6981387 3.1126187 -1.9667968
000040 ea 82 44 c0 e6 1a c1 c0 3f 6e 50 40 af 8a 11 be
       -3.0704904 -6.0345335 3.256729 -0.1421306
000050 b9 f9 34 c0 00 1a a1 bf da 1f 00 c0 b5 74 40 c0
       -2.8277419 -1.258606 -2.001944 -3.0071232
000060 08 6a f6 bf 4e c0 0a c0 94 ce 98 bf 44 52 a3 c0
       -1.9251108 -2.1679873 -1.1938043 -5.103792
000070 0c ba 57 40 ba 7a 62 3e 96 1a 42 3e 0e 71 2b 3f
       3.3707304 0.22117129 0.18955454 0.6696938
000080 bd 56 e7 bf 9a 1c 00 bf a1 86 cc bf fb d7 6d bf
       -1.8073345 -0.5004364 -1.5978585 -0.92907685
000090 56 f5 86 40 57 8a cb 3e bf 89 68 c0 24 6c e8 bf
       4.217448 0.39753982 -3.6334074 -1.8158002
0000a0 6f 5f 74 c0 38 e1 22 c0 49 60 6f 3f 4e 24 39 be
       -3.8183248 -2.5449963 0.93506294 -0.18080255
0000b0 c8 9f 2b 40 ec aa 17 c0 0c a2 0a c0 ed 3b 15 40
       2.6816273 -2.3698072 -2.1661406 2.3317826
0000c0 ca 17 9f be eb f5 bb 3f 91 66 75 bf 49 c8 5c 40
       -0.31072837 1.4684423 -0.9585963 3.4497244
0000d0 71 26 37 3f 65 8e 0d bf 3e 73 94 bf dd 56 cf c0
       0.7154303 -0.552954 -1.1597669 -6.4793534
0000e0 99 8f be 3e 98 a0 16 40 16 da 01 c0 6d b5 ac 40
       0.3721893 2.3535519 -2.028936 5.3971467
0000f0 9a a0 2e bf 8c 74 d6 3e 73 74 19 bf e7 93 55 bf
       -0.6821381 0.41885793 -0.5994331 -0.83428806
000100 66 53 64 bc 0b 0d 59 40 27 89 c4 3e 66 85 e5 bf
       -0.013935899 3.391421 0.3838589 -1.7931335
000110 96 a2 14 bd 89 16 ff 3d 3c 49 0e 40 64 06 10 40
       -0.036287867 0.1245547 2.2232199 2.25039
000120 76 3e 43 bf 5c 94 5e 3e b2 bf 81 c0 e9 bf f8 be
       -0.7626718 0.21736282 -4.0546503 -0.48583916
000130 46 1d 7f bf b6 e5 e7 3e 9c ba d1 3f b1 d7 db bf
       -0.9965404 0.45292443 1.6385074 -1.7175199
000140 9a c2 3e 3e 3a e8 30 40 9e 02 87 3d d4 f8 ee bf
       0.18628922 2.764174 0.06592296 -1.8669686
000150 90 bf ab 3f 35 be e9 3f 52 e7 e7 3f 7a 60 1c bf
       1.3417835 1.8261172 1.8117468 -0.6108471
000160 00 8b 8c c0 22 0c 5b 40 6a a8 79 be 49 1c 1a c0
       -4.391968 3.4226155 -0.24380651 -2.4079764
000170 4f 4d 8d 40 11 fb d2 3e f6 44 ab 3e 51 63 80 3f
       4.415687 0.41207173 0.3345105 1.0030309
000180 d8 2d 17 3f 0f 5c 5e 40 af 3f 28 bf bb 68 4f c0
       0.59054327 3.4743688 -0.65722173 -3.2407672
000190 f6 16 3e c0 46 8e c3 be 29 0b 5e 40 2b f5 ed bf
       -2.9701514 -0.38194484 3.4694312 -1.8590444
0001a0 48 55 0c 40 17 0f 89 40 88 ab 09 c0 6f 60 6f c0
       2.1927052 4.283092 -2.1510944 -3.7402608
0001b0 13 34 05 be 92 76 11 bd ed f0 00 c0 61 9a c5 c0
       -0.13008146 -0.035513468 -2.014705 -6.175095
0001c0 7c c5 4e bf 65 1d 40 3e 42 5f 67 c0 ff fc 8a 3f
       -0.8077009 0.18761213 -3.615189 1.0858458
0001d0 2c 95 ba be fa b7 da bf d4 42 16 40 a4 a2 e6 3f
       -0.36441934 -1.7087395 2.3478289 1.8018384
0001e0 44 96 36 c0 28 a0 a3 be 33 96 0a bf 5c be 5e 40
       -2.8529215 -0.31958127 -0.54135436 3.4803686
0001f0 96 9b 0c 40 a0 da a4 40 5a 4f 00 c1 b8 fa 97 bf
       2.1969962 5.1516876 -8.019373 -1.1873388
000200 32 9a 90 3f 94 c4 f3 3e 5a f9 0e bf f3 c8 62 bf
       1.1297057 0.47610915 -0.5584923 -0.88587874
000210 47 ea 1f 40 46 29 26 c0 fa 68 97 bf 94 d3 26 c0
       2.4986742 -2.5962691 -1.1828911 -2.6066637
000220 c2 c3 00 c0 63 d5 0e 40 1e a9 61 40 b8 99 91 bf
       -2.011948 2.231774 3.525947 -1.1375036
000230 b5 03 5a 40 69 7b 19 40 14 13 88 c0 26 ae 64 3f
       3.4064763 2.3981574 -4.252329 0.8932823
000240 55 6b cc 3f d1 3a e0 3f 09 9c 4c 3f 27 1d cb 3e
       1.5970255 1.7517949 0.7992559 0.3967068
000250 63 cc 93 3f 09 22 cd 3f 2c 1e 96 3e 4a 3d b0 bf
       1.1546749 1.6026012 0.29319894 -1.3768704
000260 af f3 c1 40 e0 7f b6 3f b2 4f fb 3f 5b 98 23 3f
       6.0609965 1.4257774 1.9633696 0.6390435
000270 5b 67 08 40 05 a7 87 c0 39 e7 97 bf d6 98 73 3e
       2.1313083 -4.239138 -1.1867439 0.23788771
000280 04 d9 23 c0 a4 72 2a 3f 73 5d 41 3e ac ec 46 c0
       -2.5601206 0.6658118 0.18883304 -3.1081953
000290 e0 69 fe 3d b9 9c f8 bf fb 41 51 3f 31 e1 b2 3f
       0.12422538 -1.9422828 0.81741303 1.3974973
0002a0 ed 43 82 40 e0 70 a7 c0 a7 1e 0a 40 c0 ab 52 c0
       4.0707917 -5.2325287 2.1581209 -3.2917328
0002b0 08 99 4f 40 8d 1c b2 c0 69 90 8a c0 f8 d6 da 40
       3.2437153 -5.565985 -4.330128 6.8387413
0002c0 73 e4 7b c0 20 04 48 bf 72 f1 7d 40 3e ca 95 3f
       -3.9358184 -0.78131294 3.9678617 1.1702344
0002d0 fd 52 be be 90 20 cc 3f 67 ff de 3e bc af 2a c0
       -0.3717269 1.5947437 0.43554232 -2.666976
0002e0 55 04 66 c0 1c 52 92 3f 81 29 f2 bf 8a f8 a8 3f
       -3.5940144 1.1431308 -1.8918916 1.3200848
0002f0 a5 f5 0a 40 af fe 2a 3f f4 ad cb 3f 8a a3 02 3e
       2.171243 0.66794866 1.5912461 0.12757698
000300 9e 2b ba 3f b9 e9 b8 3f ca 86 ee bf 2d 74 77 c0
       1.4544561 1.4446326 -1.8634884 -3.8664658
000310 c8 8b 8f c0 ac 99 f4 3f c6 81 0d 40 89 7f 8a 40
       -4.485813 1.9109397 2.2110457 4.3280683
000320 ec 35 34 c0 cf d1 b3 c0 89 5d 45 40 bc ee a3 bf
       -2.8157911 -5.6193614 3.083834 -1.2807231
000330 4d 4d eb bf 81 97 2a 40 9f 32 3b c0 79 c4 44 c0
       -1.8382965 2.665497 -2.9249647 -3.0744917
000340 12 14 b8 be 17 ca 27 c0 98 65 ed 3f 59 f8 93 3e
       -0.35952812 -2.6217096 1.8546629 0.28900412
000350 04 24 23 c0 6d 10 7c c0 e2 eb b4 3f 90 77 08 3f
       -2.5490732 -3.9385026 1.4134486 0.5330744
000360 1f a7 06 c0 1f f7 ca be ea fd 43 c0 59 9a 2a 3f
       -2.1039503 -0.39641663 -3.0623727 0.66641766
000370 02 ce b6 bf fb da 37 c0 27 09 c2 3f ea 98 91 bf
       -1.4281619 -2.8727405 1.5159043 -1.1374791
000380 f7 0a 4b 40 7a 31 4c c0 4f 00 44 40 53 cb 92 3f
       3.1725442 -3.1905198 3.0625188 1.14683
000390 04 01 98 bf e2 91 69 3f 47 81 01 c0 59 3d ab c0
       -1.187531 0.91238225 -2.0235155 -5.3512387
0003a0 4d 32 b0 3e 19 cf 16 40 3e b4 47 40 f4 97 09 c0
       0.34413376 2.3563902 3.120376 -2.1498995
0003b0 a1 c5 41 bf e2 eb 64 c0 d9 98 c6 be 2e 22 5b 3f
       -0.7569218 -3.5768971 -0.38788489 0.8559903
0003c0 8c 95 7c 3e 8e 8f e1 bf c1 b1 05 3f ce 87 06 3f
       0.24666423 -1.7621934 0.52224356 0.5255097
0003d0 68 e2 91 3f 6e 01 5a 40 ff 82 33 3f 9c 5a 47 bf
       1.1397219 3.4063373 0.7012176 -0.77872634
0003e0 84 69 53 c0 5f d9 aa 3f 1b 4a ce be d5 7d 09 c0
       -3.3033152 1.3347586 -0.40290913 -2.1483052
0003f0 46 0b ab be ac 01 6a 40 ad 50 2a c0 cb d1 3a c0
       -0.33407038 3.656352 -2.661174 -2.9190547
