outs/Laplace1D/__Laplace1D_cos/HMC_noise_20/thetas/theta_171/w_02.npy (npy, 1152 bytes, 1 tensors)

array f4 [16, 16]
0.51047665 0.09424634 -2.4944885 -0.15565671 -2.7007248 1.5755361 -0.0482858 -3.1075027
2.0440235 0.5451367 3.8022873 -0.06015449 1.6284915 0.824607 1.3959857 1.8412945
2.8510482 -1.2567809 -2.991517 0.5979441 0.87511116 0.61727196 0.8557785 -0.83406943
-1.9744906 -0.18745646 2.5391319 -1.8524001 -1.3018546 2.6886625 0.9622204 0.51535255
0.3872324 -2.2400663 1.871592 -0.025677973 3.1569166 -0.5159982 1.5602874 -0.8306902
-0.8496494 1.965143 -1.0530995 1.6720831 -0.034149222 2.6244376 1.0530585 -3.0029435
0.50512755 2.0189443 0.7797546 -0.44356978 -0.37787664 1.1451747 -0.2958851 0.70051295
-0.3741927 1.9965984 -5.242977 -0.2675793 2.380029 -0.65534043 0.9857889 -0.27355596
-2.1407342 1.5667058 0.97931623 2.8355012 2.0731204 0.9870951 -2.3228097 0.92484534
-1.1865125 0.79050845 -1.1521168 -1.8468304 -0.44488806 1.6601486 0.6061587 0.86521035
-0.84188974 1.0255435 0.23817746 1.0219994 1.6454582 -3.0153034 -1.0447947 1.9668045
1.1037138 2.0866313 1.9474353 -0.45321423 -2.1266823 1.4777727 2.8613904 -0.66607624
0.3852617 -0.28790057 -2.8361607 0.7725807 -0.62236226 -0.9114578 -3.879745 -1.0158412
-1.461945 0.049834624 0.23097293 -0.5813882 0.5151367 0.701117 1.6778344 1.43425
-1.4388001 0.5035929 0.6099601 1.208046 -2.4371302 0.18858089 1.316415 0.9850092
-0.19787495 1.7456356 -2.0573559 -2.7749166 -0.77645266 -0.10085441 0.9691744 -0.2171381
0.53710735 -0.029781489 0.07550398 0.11047852 0.22467493 -0.18189327 -2.178911 2.5115378
-2.7697558 -0.5733456 2.726392 1.2534744 1.7275223 -1.6913972 0.036880028 -1.6527579
-0.7232693 2.8168547 1.1083652 1.505003 0.4650221 1.215976 1.5148314 -1.7312301
-0.0011041234 -0.77450746 0.57264626 -0.064769134 -0.12144894 -1.7642543 -2.616632 -0.6785924
-0.04531037 -0.7110502 -3.77425 -0.4028929 1.082896 1.173086 0.31854746 1.6275417
1.9283305 0.6744173 4.2118535 -0.076513015 -1.8873438 -0.73258907 -3.0942926 -1.053812
-0.22562337 3.6413212 1.139528 0.13476542 1.6619278 -1.8248316 -1.8750805 2.3918762
0.8754683 3.2926219 -0.053034026 -0.78652763 -0.700768 0.45913842 -0.12614246 0.28230652
-1.4382244 -0.55393374 4.8420267 -3.0284498 -0.59764826 -3.2772837 0.65060973 -2.7449894
-3.4075537 -0.61834913 0.9119205 -0.6120311 1.6454343 -0.54953575 -0.26167488 0.49755585
-1.486384 0.8499676 -3.1087613 1.8020805 0.674222 0.52774346 -1.3706942 -1.81921
4.7311406 0.10721224 -0.05517406 -4.3282495 0.84796154 0.4034435 -0.30288324 -0.020315718
0.16420214 0.86796296 -1.6007127 1.1063936 0.0020825104 0.14606547 -1.388324 3.2179494
1.8223969 -0.35432222 -1.8858016 -0.2581143 -2.491704 -0.6704846 0.98055375 0.44585258
-1.4166116 0.068001784 -0.9180604 3.3856592 -2.6482284 -0.40722436 -1.8409642 -0.47675732
1.0146432 1.1536483 -2.130029 -1.2762053 -2.9826236 -0.58099717 1.3506222 -0.30658555
00000000: 99ae 023f 3a04 c13d b3a5 1fc0 7964 1fbe
00000010: add8 2cc0 2bab c93f 55c7 45bd 53e1 46c0
00000020: 48d1 0240 148e 0b3f ad58 7340 8e64 76bd
00000030: 6972 d03f 7219 533f a9af b23f 8aaf eb3f
00000040: 9377 3640 32de a0bf 0475 3fc0 dd12 193f
00000050: 4907 603f 8905 1e3f 4d14 5b3f 9385 55bf
00000060: 1cbc fcbf 96f4 3fbe 2381 2240 721b edbf
00000070: 2ca3 a6bf 0c13 2c40 1354 763f 25ee 033f
00000080: 5343 c63e 3f5d 0fc0 5490 ef3f 9d5a d2bc
00000090: ec0a 4a40 7518 04bf 7fb7 c73f 1da8 54bf
000000a0: a082 59bf ce89 fb3f f7cb 86bf d206 d63f
000000b0: 0ee0 0bbd c9f6 2740 9fca 863f 3a30 40c0
000000c0: 0a50 013f 6236 0140 ff9d 473f 941b e3be
000000d0: 0c79 c1be 1695 923f 407e 97be d154 333f
000000e0: 3096 bfbe 8990 ff3f 78c6 a7c0 2700 89be
000000f0: 6552 1840 64c4 27bf a95c 7c3f 870f 8cbe
00000100: ca01 09c0 d189 c83f 78b4 7a3f da78 3540
00000110: 01ae 0440 44b2 7c3f eaa8 14c0 aac2 6c3f
00000120: a4df 97bf c35e 4a3f 9078 93bf f064 ecbf
00000130: 5ec8 e3be c07f d43f 372d 1b3f 6d7e 5d3f
00000140: 1686 57bf 0245 833f cbe4 733e e0d0 823f
00000150: 609e d23f bbfa 40c0 d5bb 85bf 40c0 fb3f
00000160: 7e46 8d3f 5e8b 0540 8f45 f93f b20b e8be
00000170: 901b 08c0 a827 bd3f 0521 3740 f983 2abf
00000180: 0641 c53e b467 93be a883 35c0 d9c7 453f
00000190: 2253 1fbf 4c55 69bf be4d 78c0 1607 82bf
000001a0: 0421 bbbf 641f 4c3d 2b84 6c3e dbd5 14bf
000001b0: 00e0 033f 677c 333f 47c3 d63f 8195 b73f
000001c0: 9a2a b8bf 77eb 003f 5826 1c3f 40a1 9a3f
000001d0: f1f9 1bc0 591b 413e 4980 a83f 9029 7c3f
000001e0: bb9f 4abe fd70 df3f b8ab 03c0 3c98 31c0
000001f0: 9ac5 46bf c28c cebd d01b 783f 7359 5ebe
00000200: de7f 093f 4ff8 f3bc d5a1 9a3d 9042 e23d
00000210: 2f11 663e 3b42 3abe 4773 0bc0 09bd 2040
00000220: ae43 31c0 c7c6 12bf 357d 2e40 d971 a03f
00000230: 731f dd3f b47f d8bf 830f 173d 928d d3bf
00000240: 2d28 39bf 5947 3440 e9de 8d3f f0a3 c03f
00000250: 6017 ee3e 1aa5 9b3f ffe5 c13f f398 ddbf
00000260: 3cb8 90ba 1f46 46bf f298 123f aea5 84bd
00000270: 39ba f8bd 16d3 e1bf e676 27c0 3bb8 2dbf
00000280: 5e97 39bd 6307 36bf 508d 71c0 fa47 cebe
00000290: 569c 8a3f af27 963f a718 a33e 4953 d03f
000002a0: 89d3 f63f 9da6 2c3f 81c7 8640 dbb2 9cbd
000002b0: 7b94 f1bf f58a 3bbf e408 46c0 50e3 86bf
000002c0: d009 67be 680b 6940 0edc 913f f2ff 093e
000002d0: 0dba d43f 1594 e9bf a302 f0bf 8014 1940
000002e0: b11e 603f 51ba 5240 353a 59bd e059 49bf
000002f0: 8865 33bf 3114 eb3e 7d2b 01be 7b8a 903e
00000300: bd17 b8bf 9ace 0dbf e2f1 9a40 1fd2 41c0
00000310: 7aff 18bf 04bf 51c0 5c8e 263f e8ad 2fc0
00000320: 5c15 5ac0 214c 1ebf 9f73 693f 12ae 1cbf
00000330: 979d d23f 60ae 0cbf 40fa 85be a4bf fe3e
00000340: d541 bebf 7a97 593f f2f5 46c0 93aa e63f
00000350: d099 2c3f 321a 073f e872 afbf e0db e8bf
00000360: 8165 9740 1792 db3d 32fe 61bd 0581 8ac0
00000370: 0214 593f 2590 ce3e 8313 9bbe 266d a6bc
00000380: 9b24 283e d232 5e3f 27e4 ccbf 4e9e 8d3f
00000390: ba7a 083b 3092 153e 9ab4 b1bf e2f2 4d40
000003a0: 4d44 e93f b969 b5be f261 f1bf 8f27 84be
000003b0: 1478 1fc0 e1a4 2bbf 9205 7b3f ca46 e43e
000003c0: 8753 b5bf 8544 8b3d 0206 6bbf a4ae 5840
000003d0: 937c 29c0 b67f d0be b7a4 ebbf 8919 f4be
000003e0: d4df 813f bfaa 933f 6552 08c0 b25a a3bf
000003f0: 4ee3 3ec0 3bbc 14bf 30e1 ac3f c8f8 9cbe
