outs/Laplace1D/Laplace1D_cos/HMC_2022.09.09-17.21.39/thetas/theta_4204/w_02.npy (npy, 1152 bytes, 1 tensors)

array f4 [16, 16]
0	0xbf9b6ebb	-1.2143167
1	0x40d40ef6	6.6268263
2	0xc15966e0	-13.587616
3	0x4013cf01	2.3095095
4	0x409661bc	4.6994305
5	0x41753474	15.325306
6	0xc11e248f	-9.883925
7	0x40c12796	6.0360823
8	0xc0a45fdf	-5.136703
9	0xc1368e26	-11.409704
10	0xbfb0ff23	-1.3827862
11	0xbeaa459a	-0.33256227
12	0xc10a1d46	-8.632147
13	0xc0632b9a	-3.5495362
14	0xc124106b	-10.254008
15	0x41a1b3ff	20.212889
16	0x4112646b	9.149516
17	0x4083260f	4.098396
18	0xc10c66c2	-8.775087
19	0xc0b4cecf	-5.650245
20	0x3e15f9a7	0.14646016
21	0x4125628e	10.336561
22	0xc10018ea	-8.006083
23	0x41222023	10.132846
24	0x3f42f6a8	0.7615762
25	0xbff0382c	-1.8767142
26	0xbea69ed4	-0.3254305
27	0xc0341fa9	-2.8144324
28	0xc10da879	-8.853631
29	0x3fa2f932	1.2732298
30	0x40f9e6a0	7.8094025
31	0xc0a0e6d9	-5.0281796
32	0x413b91c7	11.72309
33	0x3e6116c2	0.21981338
34	0x4045e9d6	3.0923972
35	0x4073d30e	3.8097568
36	0x40aa4609	5.321049
37	0x40a66ce9	5.2007947
38	0x3fa6b636	1.3024356
39	0xc15b2bb2	-13.698168
40	0xc0e40f5f	-7.1268764
41	0x3ffa9133	1.9575561
42	0x40520ba6	3.281961
43	0x404a0c59	3.1570036
44	0xc0f16aea	-7.544301
45	0x4056aad4	3.3541765
46	0xbf5cfe5b	-0.86325616
47	0xc12cd69d	-10.802396
48	0x4083d3d4	4.119608
49	0x412941d9	10.578576
50	0xc00ff05a	-2.249045
51	0xc149f3f4	-12.622059
52	0x408c0b70	4.376396
53	0xbfefe352	-1.8741248
54	0xbec5b20b	-0.38612399
55	0x4111e957	9.119468
56	0xbea42a9d	-0.3206376
57	0x4067796d	3.6167862
58	0xc0ed76a8	-7.4207344
59	0xc009e6cf	-2.1547124
60	0x40b0e9f6	5.5285597
61	0x407b2d02	3.924622
62	0x40052b8d	2.0807831
63	0x40a8a6ad	5.270346
64	0xc0eaa027	-7.33205
65	0x40a317f7	5.0966754
66	0xbe4aca86	-0.19803819
67	0xc0d11a48	-6.534458
68	0x3f7a0fb4	0.9768021
69	0xc0bccbf2	-5.8998957
70	0x3fbc0444	1.4688802
71	0x3fd1ec0e	1.6400163
72	0xbfe555c1	-1.7916795
73	0xc0846793	-4.1376433
74	0x403e3309	2.971865
75	0xc039774f	-2.897907
76	0x40263326	2.5968719
77	0x40183736	2.3783698
78	0xc080930f	-4.0179515
79	0x4152a63b	13.165584
80	0xc0241728	-2.5639133
81	0x40d2ad26	6.5836363
82	0xc04f31a8	-3.2374058
83	0x40ba8fe5	5.8300653
84	0xc0c71014	-6.2207127
85	0xc0c8b35f	-6.271896
86	0xc09f8e3b	-4.986112
87	0x40c9f1ff	6.3107905
88	0xc099c37b	-4.8051124
89	0x410841c4	8.516056
90	0xc0ab6554	-5.356119
91	0xbfc0f4e5	-1.5074736
92	0x4039b54b	2.9016902
93	0x40106287	2.2560136
94	0xc0a00936	-5.0011244
95	0xc0935609	-4.6042523
96	0xc040b98c	-3.011325
97	0xbe576335	-0.21033938
98	0x3e530816	0.20608553
99	0x40e4e6a1	7.153153
100	0x401ae383	2.4201362
101	0x410879e6	8.52976
102	0xbfd28258	-1.6446028
103	0xc045c373	-3.0900543
104	0xc0654985	-3.5826123
105	0xc0a52c91	-5.16169
106	0xc022b153	-2.542073
107	0xbfded272	-1.7407973
108	0x408d7ccd	4.4214845
109	0x3f3c167a	0.73471797
110	0x40c3d9b8	6.120327
111	0xbf4688ea	-0.77552664
112	0x3f8e11a3	1.1099132
113	0xbf93af71	-1.1537915
114	0x4037b410	2.8703651
115	0x40684416	3.6291556
116	0x3eb62833	0.35577545
117	0x4109e480	8.618286
118	0x40344525	2.8167202
119	0x40c99d11	6.300423
120	0x40915478	4.541561
121	0x414c0923	12.752231
122	0xc0b45ec4	-5.636568
123	0xc0802f85	-4.0058007
124	0x3fc75bde	1.5574911
125	0xbe0e60dd	-0.13904138
126	0xc047b258	-3.1202602
127	0xc081f7c8	-4.0614967
128	0x40c208aa	6.0635576
129	0x3f32c4c9	0.6983152
130	0x41313520	11.07547
131	0xc161f32e	-14.12187
132	0xbff375b2	-1.9020293
133	0x406f6025	3.7402432
134	0xbf05804a	-0.5214888
135	0x411f77ca	9.966745
136	0xbfb5002a	-1.4140675
137	0x40ac557a	5.385434
138	0x41025ae4	8.14719
139	0x4028d7b4	2.6381655
140	0xc0891b09	-4.28455
141	0x3cd37072	0.025810454
142	0xc032986b	-2.7905529
143	0x3fae64dc	1.362453
144	0xc12834df	-10.512908
145	0xc097dbc4	-4.745577
146	0x41137d32	9.218065
147	0x40117b9e	2.27317
148	0x3f1a51d3	0.60281104
149	0xc10b5d4d	-8.7102785
150	0x418aa3c3	17.329962
151	0xc14f7dcf	-12.968215
152	0x3fa97b9a	1.3240845
153	0xc082837f	-4.078552
154	0xc0328d9f	-2.7898939
155	0x3ff34704	1.9006047
156	0x4118addd	9.542447
157	0xc09b1043	-4.845735
158	0x409a3e74	4.8201237
159	0x41173fc2	9.453066
160	0xbf0ec1da	-0.55764544
161	0x3f43b30c	0.7644508
162	0x3f181d96	0.59420145
163	0xc12dff43	-10.87482
164	0x3fa855a2	1.3151133
165	0x40bb6d8c	5.8571224
166	0x3f127357	0.57207245
167	0x3f0c0462	0.5469419
168	0x4090ab29	4.5208936
169	0xc04568f0	-3.0845299
170	0xbf93eb35	-1.1556154
171	0x41261ae9	10.38157
172	0xc082189d	-4.0655046
173	0x3f63c806	0.88977087
174	0xc03ed93b	-2.9820087
175	0x40e5921a	7.1740847
176	0x41103f58	9.015465
177	0x40e3ffa9	7.1249585
178	0x411b1818	9.693382
179	0xc1295ba7	-10.584876
180	0xc0cf4ffa	-6.478513
181	0x3fcdde25	1.6083418
182	0xbfd5edf2	-1.671324
183	0x3f899d69	1.0751163
184	0x403c2d8c	2.94028
185	0x411cf666	9.810156
186	0xc0b1c8a4	-5.5557423
187	0xc09600de	-4.687606
188	0xbfc4435e	-1.5333059
189	0xc0cb925a	-6.361615
190	0x3e8819e8	0.26582265
191	0xc01dfab6	-2.4684272
192	0x407e0694	3.9691515
193	0xc05c6c5e	-3.4441142
194	0xbff5b82e	-1.9196832
195	0xbfcd9db1	-1.6063749
196	0xc04e15fc	-3.2200918
197	0xc102bac2	-8.170595
198	0xc0e0dec6	-7.027194
199	0xc093f05f	-4.623092
200	0x4106a5db	8.415492
201	0xbfa4ef40	-1.2885513
202	0x3f2c1551	0.67220026
203	0x41727063	15.152438
204	0x413f58b0	11.959152
205	0x410ea1db	8.9145155
206	0xbdd69388	-0.10477358
207	0x3e7069a7	0.23477803
208	0xc11e60aa	-9.8986
209	0xbfd950a7	-1.6977738
210	0xc1161606	-9.380377
211	0xc0393fec	-2.8945265
212	0x408139d1	4.0383077
213	0x408785f9	4.235104
214	0xbfc58a7a	-1.5432885
215	0xbf6bf047	-0.9216351
216	0x410457a1	8.271394
217	0x407cae0e	3.9481235
218	0x3ff59de1	1.9188806
219	0x3f4f7af4	0.81046987
220	0x41265e73	10.398059
221	0x4089037c	4.2816753
222	0xc0190cdf	-2.3914106
223	0xc10de9f4	-8.869617
224	0xbea730f0	-0.32654524
225	0x4042f44d	3.046161
226	0xc090a805	-4.52051
227	0xc0465dda	-3.0994782
228	0x4003e80b	2.0610378
229	0xc088d332	-4.2757807
230	0x409f7a12	4.983651
231	0xbfe1acc5	-1.763085
232	0x40899812	4.2998133
233	0x40260218	2.5938778
234	0x3fb8a45c	1.4425159
235	0x40301e18	2.7518368
236	0xc0246722	-2.5687947
237	0xbe3fae21	-0.18718769
238	0x3fac5d06	1.3465889
239	0x40866da9	4.2008862
240	0xc160512a	-14.019815
241	0xbf5c827d	-0.8613661
242	0xc0ae92cb	-5.455419
243	0xc0af3edd	-5.4764237
244	0xc07a315c	-3.9092627
245	0xc07dc5ab	-3.9651897
246	0x4080159d	4.0026383
247	0x40b7abc6	5.7397184
248	0x4146dd24	12.428989
249	0x408ef33f	4.467193
250	0xc0e22410	-7.066902
251	0xc16a03d8	-14.625938
252	0x4024bda4	2.5740747
253	0xc0c084d0	-6.0162125
254	0x40b522ea	5.660512
255	0x4074f461	3.8274157
