outs/Laplace1D/Laplace1D_cos/HMC_2022.09.09-17.21.39/thetas/theta_019/w_02.npy (npy, 1152 bytes, 1 tensors)

array f4 [16, 16]
0	0x3f65f528	0.89827204
1	0x40080542	2.125321
2	0xc0c4643e	-6.1372366
3	0xbf853c93	-1.0409111
4	0x3c1323c4	0.008980695
5	0x400297a5	2.0405056
6	0x4051c2f6	3.2775245
7	0xc07ed9ca	-3.9820428
8	0x3fa84fab	1.3149313
9	0xc04671a7	-3.1006868
10	0x4041cd8a	3.02817
11	0xbfb13898	-1.3845396
12	0x3f729917	0.94764847
13	0x3fc1e5f9	1.5148307
14	0x3edeed7e	0.43540567
15	0x40c1468f	6.039863
16	0x404386e5	3.0551083
17	0xbf2b5703	-0.66929644
18	0xbff24860	-1.8928337
19	0x3f4b7e3f	0.7948951
20	0x3fe5ba18	1.7947416
21	0x3ec568ac	0.3855642
22	0x3f9a550c	1.2057204
23	0xbeff1db5	-0.49827352
24	0xbf49ea08	-0.7887273
25	0x3e08d381	0.13361932
26	0x406d1c1f	3.7048414
27	0xc01d0963	-2.453698
28	0xbf0f2d86	-0.5592884
29	0x40366128	2.84968
30	0x4010d01d	2.2627022
31	0xbef687fe	-0.4815063
32	0xbf85c89c	-1.0451846
33	0xbf9b4587	-1.2130593
34	0x40239a9d	2.5563118
35	0xbde9c128	-0.11413795
36	0x40769540	3.8528595
37	0x3fafbcb3	1.3729461
38	0x3fe082db	1.7539934
39	0xc04929e3	-3.1431816
40	0xbff8b7cb	-1.9431089
41	0x3f3a257e	0.7271346
42	0xbfa26563	-1.2687191
43	0x40768fb5	3.8525212
44	0xbf349d7d	-0.7055281
45	0x40593f24	3.3944788
46	0xbfcb7769	-1.5895816
47	0xc089b14f	-4.302894
48	0x3fe05c87	1.7528237
49	0x406a1ae5	3.6578915
50	0xbf8047ec	-1.0021949
51	0x3f56719f	0.8376712
52	0xc03ce1a7	-2.9512727
53	0x4023530e	2.5519443
54	0xc014b532	-2.3235593
55	0x3fb38d37	1.402747
56	0xbf9b4b34	-1.2132325
57	0x402ba56f	2.6819723
58	0xc0909fef	-4.519523
59	0xbe9f9049	-0.31164768
60	0x4062754d	3.5384095
61	0x3f7c99e5	0.98672324
62	0x4045ebef	3.0925252
63	0xbfb16528	-1.3858995
64	0xc0b52447	-5.6606784
65	0x406bde73	3.6854522
66	0xbffc1d03	-1.9696354
67	0x40716840	3.771988
68	0x3ff7e456	1.9366558
69	0x3f3b24fb	0.731033
70	0xc02874e7	-2.6321352
71	0xbe09798a	-0.1342527
72	0xbfc1cc98	-1.5140562
73	0x3fc07571	1.503584
74	0xc0119205	-2.2745373
75	0xbfb8a40f	-1.4425067
76	0xbf6113e0	-0.8792095
77	0x4003983c	2.0561666
78	0xbf345194	-0.7043698
79	0x402b65a8	2.6780796
80	0xc00273e7	-2.038324
81	0xbfa7586b	-1.3073858
82	0x3e88292d	0.26593915
83	0x400b57fc	2.1772451
84	0x3f159c6a	0.58441794
85	0xbf23c7a2	-0.6397649
86	0xc022b565	-2.5423214
87	0x40335f85	2.802705
88	0xbf9160b1	-1.1357633
89	0x3ff37ce6	1.9022491
90	0xbf75a3b5	-0.9595292
91	0xbe6ad6ed	-0.2293355
92	0xbfb97c1f	-1.4491004
93	0x3f9df537	1.2340459
94	0x400cccb3	2.1999938
95	0xc051d70c	-3.2787504
96	0x3f75cfb1	0.96020037
97	0xbf23fb2e	-0.64055145
98	0xbf82f7e3	-1.0231899
99	0x4029cc03	2.653077
100	0x3f278bc1	0.6544762
101	0xbeb74e58	-0.3580196
102	0xbfd13924	-1.6345563
103	0xbf00a760	-0.50255394
104	0xbf8373a3	-1.0269665
105	0xc07f2edd	-3.9872353
106	0xc040d95c	-3.0132666
107	0xc058d95f	-3.3882673
108	0x3fb42eb7	1.4076756
109	0x402d9cdf	2.7126997
110	0x408811fd	4.252196
111	0xbef86699	-0.48515776
112	0xbf95d1a2	-1.17046
113	0xbd926b64	-0.071493894
114	0x4027e5c1	2.623398
115	0x3fcdc137	1.607459
116	0x3f8e802b	1.1132864
117	0x400d4fd8	2.2079983
118	0x40347a0a	2.8199487
119	0x4049f2d4	3.155446
120	0xbf3da930	-0.74086285
121	0xc0058466	-2.086206
122	0x3fc03b6a	1.5018132
123	0xc049105f	-3.1416242
124	0xc023a68c	-2.5570402
125	0x40197950	2.3980293
126	0x3fbd84df	1.4806174
127	0x3ffcd90a	1.9753735
128	0x3e149845	0.14511211
129	0x3f8790ec	1.0591102
130	0x3fe0bdf1	1.7557966
131	0x3e1e2fcd	0.15447922
132	0x3f682422	0.90680134
133	0xbfb5bb90	-1.4197865
134	0xbea74dd7	-0.32676575
135	0x406fc5d2	3.746449
136	0xc06bb927	-3.6831758
137	0x3feedfb1	1.8662015
138	0x405e2247	3.4708421
139	0x4058a384	3.3849802
140	0xbe4a1de8	-0.19737971
141	0xc008507b	-2.1299121
142	0xbfa89029	-1.3168994
143	0xc054c0a9	-3.324259
144	0xbfd6b291	-1.6773244
145	0x3c89ed88	0.016836897
146	0x4002a04b	2.0410335
147	0x3f078ed8	0.5295234
148	0x401c7c26	2.4450774
149	0xbf34e52a	-0.70662177
150	0x40b4aae6	5.6458616
151	0xc04e965d	-3.2279274
152	0x3f66730f	0.90019315
153	0xc03111a7	-2.7667024
154	0x3d5190df	0.05116355
155	0xbd93ab48	-0.07210404
156	0x3db116d7	0.086469345
157	0xc09d8324	-4.9222584
158	0xc027e67c	-2.6234426
159	0x3fdab593	1.7086662
160	0xbe8a1ec8	-0.2697661
161	0xbf04d2ff	-0.51884454
162	0xbfa7da52	-1.3113501
163	0xbf88b6af	-1.0680751
164	0x3f970382	1.1797945
165	0xbea59d1f	-0.32346436
166	0xbf4ac5a0	-0.792078
167	0xbfae5139	-1.3618537
168	0x3fa325d3	1.2745918
169	0x3ed8913f	0.42298314
170	0x407fc8e5	3.9966366
171	0x3f6a782d	0.91589624
172	0xbf543728	-0.8289666
173	0xc02f14b3	-2.7356384
174	0xbfd3c5d3	-1.6544746
175	0xbf2eef22	-0.6833364
176	0xbfc25284	-1.5181432
177	0x404ba9dc	3.1822424
178	0x3f4c629f	0.79837984
179	0xc000719a	-2.0069337
180	0xbf967a28	-1.1756029
181	0xbe8db6cd	-0.27678528
182	0xc031c779	-2.7777998
183	0x406830e6	3.6279845
184	0xbb8f1524	-0.004366534
185	0x409c4675	4.8836007
186	0xbefa7efe	-0.48925012
187	0xc00b3c84	-2.1755686
188	0x3e60aa9e	0.21940085
189	0xbe83915f	-0.25696847
190	0x3fac8681	1.3478547
191	0x3efafcd6	0.49021024
192	0xc080ed0c	-4.0289364
193	0x3f553edc	0.8329904
194	0x40694da9	3.645365
195	0xc05b76ef	-3.4291341
196	0x3ea8e0a6	0.32983893
197	0xc026a893	-2.604039
198	0xbfa75ab3	-1.3074554
199	0xbfebc2ba	-1.8418801
200	0xbf83b3a9	-1.0289203
201	0xc021f788	-2.530733
202	0x3dab72a0	0.08371472
203	0x3feedd9f	1.8661383
204	0x4015ab50	2.338581
205	0x3fa47c2b	1.2850393
206	0xbe841e2a	-0.25804263
207	0x3e9eb6e3	0.30998906
208	0xc0000bca	-2.0007195
209	0x3f1dee6e	0.6169194
210	0xc0221636	-2.5326056
211	0x3f654891	0.8956385
212	0x3eb10c71	0.34579805
213	0xbf5176f3	-0.8182213
214	0xbf1f214c	-0.6216018
215	0xbf9bda57	-1.2176007
216	0x407f8026	3.9921966
217	0xbecf07f5	-0.40435758
218	0x3fb9e2fd	1.4522396
219	0xc00d9d42	-2.2127233
220	0x3f30ce05	0.6906436
221	0x3fc9cb6b	1.5765203
222	0xc013d316	-2.3097587
223	0xbf880efe	-1.0629575
224	0xbfd237bf	-1.6423262
225	0x3e409e96	0.18810496
226	0xc02339d7	-2.5504053
227	0xbfc337d2	-1.525141
228	0x3f9280ad	1.1445519
229	0xbf5f9e2b	-0.8735072
230	0xc02a7062	-2.6631093
231	0xbfb6cecf	-1.4281863
232	0x4032bd4d	2.792804
233	0xbf3f2455	-0.74664813
234	0xbf416029	-0.75537354
235	0x3f0198b8	0.50623655
236	0xc0459426	-3.0871673
237	0xbefb520e	-0.4908604
238	0x3e7b1693	0.2452033
239	0x3f87eea9	1.0619708
240	0xbfee5632	-1.8620055
241	0xbdd47477	-0.103737764
242	0xbebaa37c	-0.36452854
243	0x40330806	2.7973647
244	0xc00f9daf	-2.2439992
245	0xbfaef79c	-1.3669314
246	0xbe678c23	-0.22612052
247	0x3f0fee1a	0.5622269
248	0xbfa1b7c6	-1.2634208
249	0x40141c44	2.3142252
250	0xc01fee89	-2.498934
251	0xc0262c2f	-2.5964468
252	0xc0b41ecf	-5.628761
253	0x3e15aba0	0.14616251
254	0x405a9657	3.415426
255	0xbf796535	-0.97420055
